Machine_Learning/Deep_Learning/MLP_result.pth (torch, 11368 bytes, 4 tensors)

linear_1.weight f4 [30, 64]
000000 a8 45 8f 3d 02 8e cd bd b0 41 c4 bd ae 8a a5 bd
       0.06995708 -0.100368515 -0.095828414 -0.08083092
000010 0b 03 aa 3d 28 1f 6e bd 80 b3 05 3d 9f 11 10 3d
       0.08301362 -0.05813518 0.032641888 0.035173055
000020 36 22 be 3d f9 89 af 3d 0b 75 91 3a b1 92 11 3d
       0.09283869 0.08571238 0.0011097504 0.035540286
000030 ba 45 06 bc 16 04 10 be 41 30 0b be df ee 94 bd
       -0.008195335 -0.14064059 -0.13592626 -0.072721235
000040 65 05 9f 3d 37 d2 1b 3c bb 8d 8e 3d c1 38 ea 3d
       0.07764701 0.009510568 0.06960627 0.11436606
000050 68 b6 09 be 72 ef e9 bc cb ab 4a 3c d3 30 a2 bd
       -0.13448489 -0.02855656 0.01237006 -0.07919469
000060 bf 39 47 bd 91 95 a9 bd a5 3f d2 3d 85 65 b5 3d
       -0.048639055 -0.08280481 0.102660455 0.08857254
000070 43 d6 9c bd 90 5c 27 bd f7 cf 0a 3e ec 16 73 3d
       -0.07658055 -0.04085976 0.13555895 0.059348032
000080 80 d2 cc 3d f1 00 c5 bd cd bb ee 3d 8e 7a bc bd
       0.10001087 -0.0961932 0.11656914 -0.09203063
000090 73 5d 1e 3d 25 8e 5f bd c9 d4 64 3d 94 7a a1 3d
       0.03866334 -0.05457892 0.05586699 0.07884708
0000a0 ad d1 6e 3d 6a 1e 22 3e cc 05 b7 bd 50 6d 2b 3d
       0.05830543 0.15831915 -0.089366525 0.041852295
0000b0 56 8c 4c bd 63 9d 0e 3d 66 ba b3 bd f5 cc d6 3c
       -0.049938522 0.034818064 -0.08775787 0.026220778
0000c0 10 6d b3 3d 05 a7 a0 3d c5 9b 10 3e 70 38 ab bd
       0.087610364 0.078443564 0.14121921 -0.08360374
0000d0 91 e0 22 3e 91 18 ad 3d 19 6a d2 bd bb be 96 3d
       0.15905978 0.08451951 -0.10274143 0.07360598
0000e0 70 1e 32 bd e9 0d 27 3d 89 2d 32 bd b9 b5 e8 3c
       -0.04348606 0.04078475 -0.043500457 0.028406965
0000f0 4b 25 fc 3a 0b 84 a4 3d 07 f3 c2 bd 49 89 e3 bd
       0.0019237188 0.08032998 -0.0951901 -0.111101694
000100 57 0d b2 bc 05 8c 61 bb df 54 83 3d 88 05 00 be
       -0.021734877 -0.0034415734 0.06412672 -0.1250211
000110 84 0e af 3d de fe 64 bc 3c 98 3b be e8 41 ba bd
       0.085476905 -0.013976781 -0.18319792 -0.09094602
000120 93 6f 83 bc 96 43 5d 3d e8 82 5e 3d a3 80 29 be
       -0.016044414 0.054019533 0.05432406 -0.16552977
000130 db 93 58 bd 06 57 a4 bd 94 9d d2 bd eb f9 00 bc
       -0.05287538 -0.08024411 -0.10283962 -0.007872085
000140 d6 35 ff bd b4 ad e2 bd 19 31 6d be 53 c4 8d be
       -0.1246144 -0.110682875 -0.2316326 -0.27688846
000150 46 bf 40 3e 81 83 aa be 96 b6 1b bd 39 50 18 bd
       0.18822965 -0.33303455 -0.038015924 -0.03718588
000160 4c 0d f2 bd 91 1e 9b be 57 a9 dc be db 37 26 3e
       -0.118189424 -0.30296758 -0.43097946 0.16232245
000170 ec 32 4e 3e 0e 98 93 be d3 44 a9 bd 87 4b fa bd
       0.20136613 -0.28826946 -0.0826508 -0.12221437
000180 8b d8 9d 3c 2c 80 94 bd 1d 53 de 3d e6 cc 88 3e
       0.019268295 -0.07251009 0.10855696 0.26718825
000190 95 bf a1 3e ba 01 26 be ae 9c 80 bd 4f 3e 6a 3d
       0.31591478 -0.16211596 -0.06279884 0.05718833
0001a0 81 21 e2 bc bc 3d b9 3d 68 3a d2 3e ea 3f d8 3e
       -0.027603867 0.09044978 0.41060185 0.42236263
0001b0 b3 6b 02 bd c5 84 cc 3c c7 be 28 bd 4e 79 cb bd
       -0.03184099 0.024965653 -0.041197564 -0.099352464
0001c0 50 3c f0 bd 83 87 44 3d 99 96 fb 3d ee 1c 41 3d
       -0.11730254 0.047980797 0.122845836 0.04714673
0001d0 d7 ae ac bd 45 a4 56 3e 53 1e ca 3d 02 75 48 be
       -0.084317856 0.20961101 0.09869065 -0.19575885
0001e0 48 2c a6 3c 9b d1 24 be dd 51 41 be 6b 2a 2f be
       0.020284787 -0.16095583 -0.18878885 -0.17106025
0001f0 bc ea aa 3d 2f 04 de 3d 65 7f 4f be 73 8b 56 3d
       0.08345553 0.10840642 -0.20263441 0.052379083
000200 9c 2e 59 bd 01 4e 20 be f3 9a df 3a b0 e5 86 3e
       -0.053022966 -0.15654756 0.0017059728 0.26347113
000210 a6 85 3d be e7 63 a1 3e 7d 7e fa 3d af 27 5a bc
       -0.18508014 0.31521532 0.12231157 -0.013315125
000220 45 84 2a bc f3 a6 7b be d4 e5 a5 bb c2 4c 5f 3e
       -0.010407512 -0.24575405 -0.005062798 0.21806625
000230 74 75 43 3e f2 b8 d7 bd 86 f0 37 be 73 8e fe 3c
       0.19087774 -0.105333224 -0.17962846 0.031073784
000240 60 40 29 3d 1f 71 ed bc 76 1a b7 bc 43 9b d0 3e
       0.04132116 -0.028984604 -0.022351485 0.40743455
000250 2b 1b b6 3d f6 5c 32 3e c0 c1 2a bd 7d dc f2 3c
       0.08891901 0.17418274 -0.04168868 0.029646153
000260 34 eb f4 3b 36 20 5f 3c 86 5b 24 3e 75 9b 57 3e
       0.0074743275 0.0136185195 0.16050538 0.21055396
000270 64 51 e7 3d f8 96 82 3e 6c 02 5a 3d a4 31 e7 bd
       0.11294821 0.25505805 0.053224966 -0.11288765
000280 5b fb 18 3d b7 3f 90 bd 25 7e 70 3e 59 3f 26 bd
       0.037349086 -0.07043403 0.2348562 -0.040587757
000290 47 e8 26 be c8 ab 9e 3e 04 80 3e bd f0 87 c9 bd
       -0.16299544 0.30990434 -0.046508804 -0.09840381
0002a0 09 5b 84 bd e8 56 53 bd 86 a8 16 be 3a 10 ae bd
       -0.06462676 -0.051596552 -0.14712724 -0.08499189
0002b0 50 07 54 bc 1e 19 09 3d 28 8f 80 be eb ec f2 3c
       -0.012941197 0.03347122 -0.2510922 0.029653987
0002c0 90 79 25 be ae d9 54 be e7 74 96 bc 5c 75 63 bd
       -0.16159654 -0.20786163 -0.01836629 -0.055531844
0002d0 34 96 a9 3d f3 f0 e2 be 4b ff 93 be 5b 07 c6 3d
       0.08280602 -0.44324455 -0.2890571 0.09669372
0002e0 28 76 27 3d 62 1a 20 bd 5d 54 7c bd fc 45 76 3e
       0.040884167 -0.03908766 -0.061603893 0.24050134
0002f0 b4 b6 33 be da cd 30 be 8d 93 43 be 07 b2 39 3c
       -0.17550164 -0.17266026 -0.19099255 0.011333949
000300 64 0f 98 3d 55 c2 de bc c8 ab 1a bd 28 1e 98 3c
       0.074248105 -0.027192274 -0.03776148 0.018569067
000310 98 9b 0c 3d cd 4a 49 bd 58 70 cc 3d a5 34 8b bd
       0.034328073 -0.0491436 0.09982365 -0.067971505
000320 39 7b e7 3d cc 4f 87 3d d7 82 a5 3d e5 cb 96 bd
       0.113028 0.06607017 0.08081596 -0.073631085
000330 1e 67 4a ba 1c a0 1f bd 4b c8 fe 3d 6f 75 21 3d
       -0.0007721054 -0.03897105 0.124405466 0.039418634
000340 28 65 d1 3c 65 6f ea 3d ca 81 86 3d e0 9f 71 bc
       0.02556093 0.11447028 0.06567724 -0.01474759
000350 ae 7e b9 3d 49 12 94 bd ee f5 09 3e 82 17 8d bd
       0.09057365 -0.0723005 0.13472721 -0.068892494
000360 f1 3d b2 bd 55 2b a7 3d eb e2 07 3e 1a c6 a2 bc
       -0.08703221 0.08162562 0.13270156 -0.019869853
000370 1f 4e cb bd 4b 9a 5d 3d 06 a3 bb 3d 28 ef 83 bd
       -0.0992701 0.054102223 0.09161954 -0.064421
000380 0c e4 27 3d 44 90 67 bd 70 59 6e bc b2 b3 ac bd
       0.040988967 -0.056534067 -0.014547691 -0.08432712
000390 a2 41 af bd b0 5d d8 3d 82 12 03 bc 7e 1d 9a 3d
       -0.0855744 0.105647445 -0.008000018 0.075251564
0003a0 c2 d7 e1 3d 1b 37 a7 bd dd 59 62 bb 8d c9 45 bd
       0.11027481 -0.081648074 -0.0034538426 -0.048287917
0003b0 ef 6c 87 bd 3f b3 18 be 28 b0 e9 bd 54 5e 29 bd
       -0.06612574 -0.14912127 -0.11410552 -0.041349724
0003c0 d4 e7 41 bd 02 02 60 3c 8c a7 0a bc 1f ba a5 3d
       -0.04734023 0.013672354 -0.008462798 0.080921404
0003d0 d1 c7 97 3d 21 43 86 3d 6d 14 20 3d e0 30 19 bd
       0.07411159 0.065557726 0.03908198 -0.037400126
0003e0 bf 18 be bc 5e d1 84 3d 4e 3e 9a bd a0 e4 93 bd
       -0.02320516 0.06485246 -0.07531415 -0.07221341
0003f0 38 4a be bd f4 5f 03 be 19 8b 33 bd 78 65 35 3d
       -0.092915 -0.12829572 -0.043833826 0.04428622

linear_1.bias f4 [30]
000000 52 11 aa bd 1b d2 e6 bb ba d9 12 3e 86 03 38 3c
       -0.08304085 -0.0070440895 0.14340869 0.011231309
000010 b5 2a 1b 3e bb ad 87 bd 88 fa f7 3d 17 c2 e7 3d
       0.1515301 -0.06624933 0.12108332 0.113163166
000020 da 8f bc 3d 3d 6f e8 3d b6 27 e0 3d 55 ca 88 bd
       0.09207125 0.11349342 0.10945074 -0.06679217
000030 36 e8 94 3d 9e f3 0b 3d 61 4c 68 bd 89 0b 9e bb
       0.07270853 0.03416788 -0.056713466 -0.0048231524
000040 75 5f ce 3d 36 61 9d 3d 2f 18 73 bc 6a 1a 25 3e
       0.10076801 0.07684557 -0.014837309 0.16123357
000050 0c cf 0f 3e 7a ae cd 3d ff b6 4f 3c 6e bd 7c 3a
       0.14043826 0.100430444 0.012677907 0.00096412643
000060 58 67 38 bd a0 85 84 3c e4 e2 e1 bc be ff 23 3e
       -0.04502043 0.016176999 -0.02757401 0.16015527
000070 dd c0 27 3e ef df fb bc
       0.16382165 -0.030746428

linear_2.weight f4 [10, 30]
000000 09 33 02 bd 2c e6 16 bf d5 10 15 3e 1a 3f 1f be
       -0.031786952 -0.58944964 0.14557202 -0.15551415
000010 c4 f1 74 bf 55 80 bd 3e f2 9b ae be e5 fd e9 bc
       -0.95681405 0.37011972 -0.34103352 -0.02856345
000020 8c a7 be be ba 90 fc be 2f 71 26 be 86 4b 77 3f
       -0.37237203 -0.49329168 -0.16254114 0.96599615
000030 a2 48 0c bd d9 df 06 3e cd bf 90 3d 56 d3 e9 bd
       -0.034248956 0.13171329 0.07067833 -0.11417262
000040 50 50 08 bf e3 5e 09 be 81 63 14 3e e0 3e be be
       -0.5324755 -0.13415103 0.14491083 -0.37157345
000050 e2 8f d4 3d b9 5b 73 3f 8c 5e 3e 3d 0e b6 ca 3e
       0.10379006 0.9506183 0.046476886 0.39592022
000060 62 1f 24 3f 35 e9 ef 3b 82 91 47 bd 5b 83 91 be
       0.64110386 0.0073215016 -0.04872275 -0.2842053
000070 f1 cb 77 bc 7b 09 80 be 29 e5 05 3d 42 df 8b 3d
       -0.015124307 -0.25007233 0.032689247 0.068296924
000080 a4 c3 2f 3f 2b 8e 34 3e cf 13 4d be 1e 2e a5 bd
       0.686579 0.17632358 -0.20027088 -0.08065437
000090 05 9b 45 be e8 fb a9 3d ec 20 73 be 2b 5c f6 3e
       -0.19297417 0.083000004 -0.23743027 0.48117194
0000a0 cb c2 13 3f 5e ea 7b bb a7 b4 38 3e 63 c6 47 3f
       0.57719105 -0.0038439254 0.18037663 0.7803709
0000b0 a8 de 1b be 8c f8 16 3f a2 f0 8d 3f 1c 5a b4 bc
       -0.15221655 0.58973 1.108906 -0.022015624
0000c0 bf f6 82 3e f4 0c 1b 3e 0b ca 12 bf e7 ee 9f bf
       0.25578877 0.1514166 -0.57339543 -1.2494782
0000d0 a6 c9 01 be b5 61 9f be d8 b3 7d bf b0 b4 9b 3d
       -0.12674579 -0.31129232 -0.99102545 0.07602823
0000e0 12 73 16 3e 70 6a 74 be 53 55 cf be 81 1e 76 3f
       0.14692333 -0.23868728 -0.40494785 0.96140295
0000f0 11 cd de 3d ac 32 4d 3e 69 23 0c bf 6d 58 0f be
       0.10878957 0.20038861 -0.5474153 -0.13998576
000100 e5 d9 59 bf 4f e9 cc bc d7 d0 c6 be 77 c6 33 3e
       -0.85098106 -0.025013594 -0.38831207 0.17556177
000110 9e 1e e5 bd d6 86 5b 3f c3 69 c0 bc dc 39 29 bf
       -0.111874804 0.8575262 -0.023487931 -0.6610391
000120 b0 c0 16 bd 9d 65 4e bf 2b b1 1a bd 72 5e 1a 3d
       -0.036804855 -0.806238 -0.037766617 0.037687726
000130 0c 23 50 3f 6b 9e 8e 3d 26 e1 b7 be d2 fb 1f 3f
       0.8130348 0.069638096 -0.35913962 0.6249362
000140 60 3a eb 3e c1 81 d7 be d3 77 44 bd fd 10 bf 3f
       0.45942974 -0.42091182 -0.047965836 1.492706
000150 34 67 c5 3d 4b 68 ac 3d f0 f0 6e 3e d0 4a 01 3f
       0.09638825 0.0841833 0.23334098 0.5050478
000160 0c d3 00 3e d1 19 19 be 87 db dc 3d c7 54 5c 3e
       0.12580508 -0.14951254 0.10784059 0.21516715
000170 89 49 a6 be aa 8f 35 be 17 1c 06 3f b0 9a 26 3e
       -0.32477978 -0.17730585 0.5238661 0.16269946
000180 74 c8 bf 3c 82 cf ff 3d 17 72 87 3f d0 c8 4a bd
       0.023411013 0.12490751 1.0581692 -0.049507916
000190 fb cb 40 be 26 6a d7 be ab f3 dc 3d 85 dc 66 bf
       -0.18827812 -0.42073172 0.107886635 -0.90180236
0001a0 9a bf d5 bd cf d6 16 bf 9f 70 1c be 8c 65 25 be
       -0.10436936 -0.5892152 -0.15277337 -0.16152018
0001b0 8d 76 71 be a9 f9 f1 be 4c 59 7b 3e 84 97 a5 be
       -0.2358038 -0.47260788 0.24545783 -0.3234216
0001c0 a5 61 c8 bd 79 98 da 3d 15 9c 26 3f 73 c3 21 3e
       -0.09784249 0.10673613 0.6508191 0.15797214
0001d0 c7 46 a9 3f 90 95 13 3f 5a de 0f be 77 f5 37 3f
       1.3224725 0.5765009 -0.14049664 0.71858925
0001e0 00 b5 7b 3e a5 7d db 3d 36 fd 58 be 21 77 d2 3d
       0.24580765 0.10717324 -0.21190342 0.10276628
0001f0 c3 0d 29 be 33 cb 41 be d5 94 3d 3f b9 df 5b be
       -0.16509156 -0.1892517 0.74055225 -0.21472062
000200 12 99 36 bf 30 5f 3d bf ac 8b 50 be 10 70 b0 be
       -0.71327317 -0.7397337 -0.2036578 -0.34460497
000210 1e 6a d2 bc 2a 3c 9c 3f da 0b 02 3e 66 68 03 3e
       -0.025685366 1.2205861 0.12699834 0.12832794
000220 84 d8 ff be 9c 2d 05 be 1d 96 81 3f f9 3b 26 3f
       -0.49969876 -0.1300568 1.0123936 0.6493526
000230 7f e1 5b be 6b 38 ae 3e de 79 1b be a8 94 22 be
       -0.21472739 0.34027418 -0.15183207 -0.1587702
000240 f4 e6 52 bf c3 b4 a1 bd 81 ae 72 bd f7 a4 5c 3e
       -0.82383657 -0.07895806 -0.05924845 0.21547304
000250 ab 49 ce 3e 26 60 70 be d8 a7 04 bd 22 cf eb be
       0.4029058 -0.23474178 -0.03238663 -0.46056467
000260 e6 57 67 3e 95 6c 4d be 7c fb e6 3e 52 4a fe 3e
       0.22592124 -0.20060952 0.45113742 0.49666077
000270 54 dd 1f bf 1b e5 00 3f ba ea 65 3f bc a3 e8 be
       -0.62447095 0.5034959 0.8981129 -0.4543742
000280 75 6b f8 3d ba fc e5 be a0 49 6c 3c 01 20 2e be
       0.12129871 -0.44919378 0.01442185 -0.17004396
000290 65 91 da 3d 4a c6 37 3e 41 81 af 3e 91 9f 15 be
       0.10672263 0.17946735 0.342783 -0.14611651
0002a0 35 cc b5 be f0 20 78 bf ba 19 06 bc 65 cc a4 3f
       -0.3550736 -0.9692526 -0.008184845 1.2874876
0002b0 89 46 f2 bc 85 61 04 bf e8 87 3a bf d8 1b 80 bd
       -0.02957465 -0.51711303 -0.72863626 -0.06255311
0002c0 22 ff 04 bf 9d 5b 74 be 91 cd 38 be 59 9b 3e be
       -0.519518 -0.23863073 -0.18047167 -0.18613948
0002d0 cf 79 17 be d1 5d c5 3e 34 ef d8 be 30 0f 10 bd
       -0.1479256 0.3854814 -0.42369998 -0.035170734
0002e0 72 5d 11 bf 62 cd 7e bb a3 08 8a 3f be 67 17 3f
       -0.5678321 -0.0038879742 1.0783886 0.59142673
0002f0 05 75 3a bf a0 50 c0 be 83 c9 13 3e 8e 01 f6 3e
       -0.7283481 -0.37561512 0.1443234 0.4804806
000300 bc af 31 3e 12 8f e2 3d 98 6f cd bd a6 bf 38 3e
       0.17352194 0.11062445 -0.100310504 0.18041858
000310 d9 95 23 3f 2a 94 24 be 90 10 2b bf ec 64 b2 be
       0.63900524 -0.16072145 -0.6682215 -0.34842622
000320 13 bb 12 3f c2 26 07 be 7b 87 e5 bd 23 1a 17 bf
       0.573167 -0.13198379 -0.112074815 -0.59024256
000330 bb 30 4d 3d 19 23 9e bd e7 fe 47 3d 40 98 a4 bd
       0.0500953 -0.07721538 0.04882708 -0.08036852
000340 ce ad 37 be 83 17 be be 0c d3 21 be 71 43 06 3e
       -0.17937395 -0.37127313 -0.15803164 0.13111664
000350 a0 22 dd 3e bd 08 3f 3e 07 6d 7b 3e 5f ab 37 be
       0.4319048 0.18655677 0.2455331 -0.17936467
000360 c9 6b bb 3e b8 34 51 bc ad 3a 1f be cf 5d 85 3f
       0.3660567 -0.012768917 -0.15549727 1.0419253
000370 31 e0 0b be 10 fb f7 be 99 14 07 be ba 66 d4 be
       -0.13659741 -0.48433733 -0.13191451 -0.41484624
000380 3d 86 4c bc 1c dc 99 3d d9 f0 b2 bf 33 71 b7 3d
       -0.012483177 0.07512686 -1.3979751 0.08957138
000390 87 79 72 3f 44 e6 84 3e fc 0b b7 3e 2c 49 be 3e
       0.94716686 0.2595693 0.3575133 0.371652
0003a0 9e b0 08 bd ff bc 72 be 77 fd e9 be 44 f7 0e 3e
       -0.03337156 -0.23704909 -0.4570119 0.13961512
0003b0 f0 46 03 3e 13 48 a0 3e 2b c6 ff 3d 28 1b 8f bd
       0.1282003 0.31304988 0.124889694 -0.069876015
0003c0 74 b1 6a 3d ba 47 a0 3e 4f 93 b9 bd 61 4d df 3d
       0.05729814 0.31304723 -0.090613 0.10903431
0003d0 7a e1 47 3f ff fb c6 be 9b fa 47 bd 92 4b 69 bf
       0.78078425 -0.38864133 -0.04882298 -0.91130936
0003e0 ed 8c 45 be 30 23 f9 3d 97 dc b5 be 71 e2 2a 3f
       -0.1929204 0.121649146 -0.3551986 0.6675177
0003f0 18 c5 bf bc 49 7f a6 3e 4c 39 20 3e 23 9a e1 be
       -0.023409411 0.32518986 0.15646857 -0.4406291

linear_2.bias f4 [10]
000000 d2 29 d1 bc c4 7e 97 3d 89 36 77 be 13 b0 08 be
       -0.025532637 0.073972255 -0.24141897 -0.13348417
000010 80 f9 7d 3e 26 4d 41 be d3 b7 6f 3b 6c 01 a9 bd
       0.24802208 -0.18877086 0.0036578074 -0.08252224
000020 b7 22 b5 bd e5 c1 76 bc
       -0.08844512 -0.0150608765
