Machine_Learning/Deep_Learning/MLP_result.pth (torch, 11368 bytes, 4 tensors)

linear_1.weight f4 [30, 64]
0	0xbe13b2b5	-0.1442364
1	0xbda8949c	-0.0823147
2	0x3bb6114e	0.005556262
3	0x3ea09329	0.31362274
4	0xbe39c497	-0.181414
5	0x3e3eaccd	0.18620606
6	0x3e79d39d	0.2439713
7	0xbd27bf6b	-0.040954035
8	0x3d8b9404	0.06815341
9	0xbe4df233	-0.20111923
10	0xbc0e3ecf	-0.008681967
11	0x3dcf26bb	0.10114809
12	0xbd018435	-0.031620223
13	0x3ca5c26e	0.020234313
14	0x3d71877c	0.0589671
15	0xbdac9f40	-0.08428812
16	0xbe1182a3	-0.1420999
17	0xbdb68421	-0.0891192
18	0x3e7eec67	0.24894868
19	0x3f26fad3	0.6522648
20	0x3debaec6	0.11507945
21	0x3eb6768b	0.35637316
22	0x3d024528	0.031804234
23	0xbd0bdded	-0.03414719
24	0x3928b0f0	0.00016087643
25	0x3e0cfbb1	0.13767888
26	0x3ecc3537	0.3988435
27	0x3eeaa193	0.45826396
28	0x3e3f1de6	0.18663749
29	0x3f0db3a6	0.55352247
30	0x3e3ed8b4	0.18637353
31	0xbdfc7f57	-0.12328976
32	0xbc8995cb	-0.01679506
33	0xbe6cd54d	-0.23128243
34	0x3e49aa07	0.19693767
35	0x3dafe631	0.085888274
36	0xbe7cb962	-0.24680093
37	0xbb8154b6	-0.003946866
38	0xbdd6964b	-0.10477885
39	0x3d7edaa8	0.062220246
40	0xbcf032d9	-0.029321121
41	0xbe5a0d54	-0.21294147
42	0xbe8ddc52	-0.27707154
43	0xbe9b08bb	-0.30280098
44	0xbe869ec5	-0.26293007
45	0xbcf9dab5	-0.030499795
46	0xbe80c12c	-0.25147378
47	0x3d20a54e	0.039220147
48	0x3d9102bd	0.070806004
49	0xbdce277d	-0.100661255
50	0xbd2eba85	-0.042658348
51	0xbe71b6f8	-0.23604953
52	0xbd953f1b	-0.07287427
53	0xbece8231	-0.40333703
54	0xbe0da232	-0.13831404
55	0x3c854299	0.016267108
56	0xbdfd7cc9	-0.123773165
57	0xbdd5bb3d	-0.104361035
58	0xbbdbc113	-0.006706366
59	0x3c52cdc8	0.012866445
60	0x3dbcc21d	0.09216712
61	0x3cc4be61	0.024016561
62	0x3c92f115	0.017937222
63	0x3dd2970c	0.10282716
64	0xbdcc4f41	-0.09976054
65	0xbdbbfe34	-0.09179345
66	0x3cf91537	0.030405624
67	0xbe095cae	-0.1341426
68	0xbe37d977	-0.1795405
69	0xbeb1b250	-0.34706354
70	0xbe7076b2	-0.23482779
71	0xbc761c55	-0.015021403
72	0xbe247b68	-0.16062701
73	0xbdf1590d	-0.11784563
74	0xbe287cf0	-0.1645391
75	0x3beee4a3	0.007290439
76	0xbd86ba13	-0.065784596
77	0x3d19a40b	0.03750996
78	0xbda34d2b	-0.07973703
79	0xbe05c097	-0.13061748
80	0xbbf0a80a	-0.0073442506
81	0x3c9aaa88	0.018880144
82	0x3e4f0ff8	0.20220935
83	0x3e37ac52	0.17936829
84	0xbd63ea47	-0.055643346
85	0x3ea2bdea	0.31785518
86	0x3b24925a	0.0025111646
87	0xbe246665	-0.16054685
88	0xbdf879fd	-0.121326424
89	0xbb52ebdd	-0.0032184043
90	0x3ea4e6f6	0.3220746
91	0xbe378904	-0.17923361
92	0xbe43a625	-0.19106348
93	0x3e883110	0.26599932
94	0x3ec4c9d6	0.3843524
95	0xbdb92f78	-0.09042257
96	0xbe3bfafe	-0.18357465
97	0x3e67e096	0.22644266
98	0x3e26b88a	0.16281334
99	0xbf056bed	-0.52117807
100	0xbd80839c	-0.062751025
101	0x3da9bbcf	0.08287775
102	0x3e26da43	0.16294198
103	0xbe320c10	-0.17387414
104	0xbdfcc2c8	-0.12341839
105	0x3e36c450	0.17848325
106	0x3d572807	0.052528407
107	0x3dca0c2f	0.09865605
108	0x3e6bf0a3	0.23041014
109	0x3dd411f3	0.10354986
110	0xbe1363b8	-0.14393508
111	0xbe3f1586	-0.18660554
112	0xbe382e53	-0.17986421
113	0xbcfcef21	-0.030875744
114	0xbd986a46	-0.07442145
115	0x3da20392	0.07910837
116	0x3e2898ec	0.16464585
117	0xbedacc23	-0.4273387
118	0xbf015701	-0.5052338
119	0xbd727dd6	-0.059202038
120	0x3c9807b6	0.018558364
121	0xbe7a2786	-0.2442914
122	0xbd36eb73	-0.044658136
123	0xbe15e040	-0.14636326
124	0xbe6c7ac3	-0.23093705
125	0xbee78e62	-0.45225817
126	0xbdbb001e	-0.09130882
127	0x3d8c5d41	0.06853724
128	0xbc87eb8e	-0.016591813
129	0x3d956747	0.07295089
130	0xbdd2eefa	-0.102994874
131	0x3cf48109	0.029846685
132	0xbd4e3341	-0.05034185
133	0x3ddfaaba	0.109212354
134	0xbda3d3a2	-0.0799935
135	0x3dbb32f8	0.09140581
136	0xbb576d5f	-0.0032871587
137	0x3cbcd494	0.023050584
138	0xbce36c70	-0.027761668
139	0x3d84d596	0.06486051
140	0x3db7767d	0.08958147
141	0x3dc22da1	0.09481359
142	0x3c8741dd	0.016510898
143	0x3cad2da8	0.021139935
144	0xbdb96309	-0.090520926
145	0x3d11c07b	0.035583954
146	0x3e34a623	0.17641501
147	0x3de278ee	0.11058222
148	0xbd46d896	-0.048546396
149	0x3e9d78dd	0.30756274
150	0xbd7bf475	-0.06151243
151	0x3da0f548	0.07859284
152	0x3d7428c7	0.0596092
153	0x3d2e5a69	0.04256669
154	0x3d9b76ed	0.07591043
155	0x3ec163a1	0.37771323
156	0x3d5f66cb	0.05454139
157	0x3dfac072	0.12243737
158	0xbdee87de	-0.11647008
159	0xbd959c87	-0.07305246
160	0x3de95751	0.113936074
161	0xbdc463df	-0.095893614
162	0x3e2b2cc1	0.16716291
163	0x3df16f8c	0.11788854
164	0xbd68c01b	-0.05682383
165	0xbcd2eb8a	-0.02574708
166	0xbe910f4c	-0.28331983
167	0xbdd18d4f	-0.102320306
168	0x3d90dfc0	0.07073927
169	0xbd1052dc	-0.03523527
170	0x3e617036	0.22015461
171	0xbc08a18c	-0.008339297
172	0xbd4d7a71	-0.050165597
173	0xbd4c1509	-0.04982475
174	0xbe5b6b7e	-0.21427724
175	0x3c24559d	0.010030177
176	0x3cbc4274	0.022980906
177	0x3d31e7ed	0.043434072
178	0xbda28c41	-0.079369076
179	0xbc38050d	-0.011231673
180	0x3da67c98	0.08129233
181	0x3d935dd8	0.07195634
182	0xbd9cb340	-0.07651377
183	0x3d17adc5	0.037030954
184	0x3dd3510e	0.10318194
185	0xbde62405	-0.11237339
186	0xbe3dec2b	-0.18547122
187	0x3df28bfa	0.11843105
188	0x3e6f3c1d	0.23362775
189	0x3e07f758	0.13277948
190	0x3d4bffef	0.049804624
191	0x3bdcc48c	0.0067372974
192	0xbd92aabb	-0.071614705
193	0x3da0a544	0.07844022
194	0x3eeb7bc7	0.45992872
195	0x3de19eae	0.11016594
196	0x3ee4a75e	0.4465894
197	0x3e5800fb	0.21094124
198	0x3e985490	0.29752016
199	0xbe1b53bc	-0.15168661
200	0xbd9f66cd	-0.077832796
201	0x3d5d299d	0.053994764
202	0x3f0a7bc5	0.5409511
203	0x3e2cb3e1	0.16865493
204	0xbba30975	-0.0049754926
205	0xbd55593c	-0.052087054
206	0x3e323e59	0.17406596
207	0xbdd488a7	-0.10377627
208	0xbe3e5e1f	-0.18590592
209	0x3d19c5b6	0.037542067
210	0x3e2af8ce	0.16696474
211	0xbef53bd8	-0.4789722
212	0xbe9ae438	-0.30252242
213	0xbe04b111	-0.1295817
214	0xbe6222e4	-0.22083622
215	0xbdfecabe	-0.12441014
216	0x3b174f7d	0.002308815
217	0x3ca0289f	0.01955062
218	0x3e610229	0.2197348
219	0x3eb8522a	0.36000186
220	0x3e999197	0.2999389
221	0xbd9dd20f	-0.07706081
222	0xbe8a0091	-0.26953557
223	0xbe1e7598	-0.15474546
224	0xbdc3ac9b	-0.09554406
225	0xbe87388a	-0.26410323
226	0xbd039210	-0.032121718
227	0x3e939f32	0.28832394
228	0xbd927a28	-0.07152206
229	0xbe0b5464	-0.13606411
230	0xbd87b402	-0.06626131
231	0xbdbabf1d	-0.09118483
232	0x3a257779	0.00063120533
233	0xbdfdda5b	-0.123951636
234	0xbeea3fc2	-0.45751768
235	0xbf16e9dd	-0.589506
236	0xbda24081	-0.079224594
237	0x3e48a7b2	0.1959522
238	0x3db1c8d9	0.08680887
239	0xbe2a9196	-0.16657099
240	0xbe1113c1	-0.14167692
241	0x3daf298e	0.08552848
242	0x3dcb2876	0.09919827
243	0xbef6b727	-0.4818661
244	0xbdfb721b	-0.12277623
245	0xbdcf8cd9	-0.101342864
246	0xbdc17e7d	-0.09447954
247	0xbc7f8a9e	-0.015597014
248	0xbd062ea3	-0.03275932
249	0x3da631c3	0.0811496
250	0x3ea16cc9	0.3152831
251	0x3e83d702	0.25749975
252	0xbdd17f81	-0.102293976
253	0xbec2a107	-0.3801348
254	0xbe9b6690	-0.30351686
255	0xbe7e0007	-0.24804698

linear_1.bias f4 [30]
0	0xbcaf89dd	-0.021428043
1	0xbccebf16	-0.025237601
2	0xbda3b55a	-0.079935744
3	0xbbda79e1	-0.006667361
4	0x3d9071c5	0.0705295
5	0x3e2b5f9e	0.16735694
6	0xbdeab86c	-0.11460957
7	0x3be52849	0.0069933278
8	0xbdd042cc	-0.101689905
9	0x3db32fd6	0.08749358
10	0x3a6d9dad	0.0009064328
11	0xbc8178ba	-0.015804637
12	0x3d641afc	0.055689797
13	0xbd6fb034	-0.05851765
14	0x3d096496	0.03354319
15	0x3e2de36f	0.1698129
16	0xbd5f2f24	-0.054488316
17	0x3dadcd97	0.08486479
18	0xbd9c8d48	-0.07644135
19	0x3c4ea750	0.012613133
20	0xbd50c925	-0.050973076
21	0x3d52a1a4	0.051423684
22	0x3e260dc0	0.16216183
23	0x3e1e38c3	0.1545134
24	0x3c0cadf9	0.0085864
25	0x3ce449e6	0.027867269
26	0x3daf40e8	0.08557302
27	0x3c7330fd	0.014843223
28	0x3db0428b	0.08606442
29	0x3df08d15	0.11745659

linear_2.weight f4 [10, 30]
0	0x3ca3727f	0.019952057
1	0x3f2e5a09	0.6810613
2	0x3e21ebcb	0.15812604
3	0xbe2690a3	-0.16266112
4	0xbea3232c	-0.31862772
5	0x3ef0b07a	0.4700964
6	0xbdff4cf4	-0.124658495
7	0xbef9125e	-0.48646826
8	0x3e1cc419	0.1530918
9	0xbdfd095d	-0.123553015
10	0x3d730b29	0.059336815
11	0xbe2bff28	-0.16796553
12	0xbe4e6ec7	-0.20159446
13	0xbe7107d2	-0.2353814
14	0xbed75fc4	-0.4206525
15	0x3e676f45	0.2260104
16	0xbe11fc1b	-0.14256327
17	0x3e47eb35	0.19523318
18	0xbdac9d0e	-0.08428393
19	0x3c23ce86	0.0099979695
20	0xbe161aee	-0.1465871
21	0xbf0ec448	-0.5576825
22	0x3ebe14ce	0.37125248
23	0xbeed7f87	-0.46386358
24	0xbea9383b	-0.33050713
25	0x3ea5ff03	0.3242112
26	0x3fafe746	1.3742454
27	0xbebb0f6c	-0.36535203
28	0xbf0274c0	-0.50959396
29	0x3e4ee393	0.20204
30	0x3ef639a1	0.48090842
31	0xb99a2ad6	-0.00029405084
32	0x3ece0d1f	0.40244386
33	0xbf8608da	-1.0471451
34	0xbe2b1b59	-0.16709651
35	0xbdca667b	-0.09882828
36	0x3de62992	0.11238398
37	0x3e2614c2	0.16218856
38	0xbdedd259	-0.11612386
39	0x3df57df2	0.11986913
40	0x3dbbded5	0.09173361
41	0x3d4d0567	0.05005398
42	0xbe1b0eb0	-0.15142322
43	0x3e9b6b91	0.30355504
44	0x3f4c2d9b	0.7975709
45	0xbf6a853c	-0.9160955
46	0x3ef1487e	0.4712562
47	0x3be9a6b8	0.00713047
48	0x3da96558	0.08271283
49	0x3ee7221e	0.45143217
50	0xbd38c5aa	-0.045110382
51	0x3d4d1e05	0.050077457
52	0xbe9427c3	-0.28936586
53	0x3efcc91e	0.4937219
54	0x3f5c8100	0.8613434
55	0x3e7fcb28	0.24979842
56	0xbee90acc	-0.4551605
57	0x3e629b79	0.2212962
58	0x3f1b304c	0.6062057
59	0x3ef58500	0.47953033
60	0xbef656ed	-0.48113194
61	0xbe19b3cd	-0.15009995
62	0xbe290291	-0.16504885
63	0xbe58f93f	-0.2118883
64	0x3f105daa	0.5639292
65	0x3f40996c	0.75234103
66	0x3e213207	0.1574174
67	0xbe9c1a2f	-0.30488726
68	0xbe23a2b9	-0.15980043
69	0xbef27d7b	-0.4736136
70	0x3e2a7c71	0.16649033
71	0x389a8861	7.368695e-05
72	0x3f9e55c1	1.236992
73	0xbda5ec37	-0.08101695
74	0x3e525706	0.2054101
75	0x3d90b065	0.070648946
76	0x3e3fef20	0.18743563
77	0xbf2b896d	-0.6700657
78	0xbd8a1882	-0.06742956
79	0x3f3ca863	0.7369444
80	0x3c654186	0.013992673
81	0xbf7abcda	-0.97944415
82	0xbe0034d8	-0.12520158
83	0x3f35b3b8	0.70977354
84	0x3ec1598f	0.3776364
85	0xbe67f3c7	-0.22651587
86	0xbf174d0a	-0.5910193
87	0x3e203615	0.1564563
88	0xbebc6f06	-0.36803454
89	0xbefbdffa	-0.49194318
90	0xbf426514	-0.7593548
91	0xbf4089fe	-0.7521056
92	0xbe014a55	-0.12626012
93	0x3f0625fb	0.52401704
94	0x3fa32641	1.2746049
95	0xbe96f192	-0.2948118
96	0xbdc468dc	-0.09590313
97	0x3d656f67	0.056014445
98	0xbd3c0428	-0.0459024
99	0x3e5ac655	0.2136472
100	0x3d504a9b	0.0508524
101	0xbb03e716	-0.0020126752
102	0xbe1a90d8	-0.15094316
103	0xbf08271e	-0.5318469
104	0xbf13d83d	-0.5775183
105	0x3f055b48	0.5209241
106	0xbe3c73d1	-0.18403555
107	0xbe6a96d6	-0.22909102
108	0x3dc96da0	0.098353624
109	0xbe990070	-0.29883146
110	0xbe2353cc	-0.15949935
111	0x3e64cdd3	0.2234414
112	0x3ec19e97	0.37816307
113	0x3eb2af67	0.34899446
114	0xbecaf4b6	-0.39639825
115	0x3c17bd61	0.00926146
116	0xbf725bdf	-0.94671434
117	0x3e306fa0	0.17230082
118	0xbf11010c	-0.5664222
119	0x3f038dc3	0.51388186
120	0xbe8d3b8f	-0.27584502
121	0x3f5962c2	0.8491632
122	0xbead6261	-0.3386412
123	0xbe6e8cd1	-0.23295905
124	0xbf3bed4b	-0.73408955
125	0x3e5d00a1	0.21582271
126	0xbda9fd70	-0.083002925
127	0xbe0374a9	-0.12837471
128	0x3da180b2	0.07885875
129	0xbcb4fe66	-0.022093963
130	0xbe1023fd	-0.14076228
131	0xbdaf9b5f	-0.085745566
132	0xbe57dd88	-0.21080601
133	0x3e80f250	0.2518487
134	0x3f510542	0.8164865
135	0xbe34b60f	-0.17647575
136	0xbd98ebe3	-0.07466867
137	0x3f309308	0.6897435
138	0x3c8e08b4	0.017338134
139	0xbed403f1	-0.41409257
140	0xbe2aa50c	-0.16664523
141	0x3e8d7951	0.2763162
142	0x3f11709c	0.56812453
143	0xbf2f5275	-0.68485194
144	0xbecde0ac	-0.40210474
145	0x3d24e6ae	0.040259056
146	0xbcd86d0c	-0.026419185
147	0xbe5177a8	-0.20455801
148	0x3f7d608b	0.9897544
149	0xbf1abe0d	-0.60446244
150	0x3e9d7e14	0.30760252
151	0xbd4857f5	-0.048912007
152	0xbe6c7928	-0.23093092
153	0x3f8b709e	1.0893743
154	0xbf577120	-0.8415699
155	0xbea97646	-0.33098048
156	0xbdfbdf72	-0.12298478
157	0xbf032d58	-0.51241064
158	0xbbd35ce8	-0.0064502843
159	0xbe88cca2	-0.26718622
160	0xbe0cf939	-0.13766946
161	0xbe6acbff	-0.22929381
162	0xbe384139	-0.1799363
163	0xbde20401	-0.1103592
164	0xbeba82c2	-0.36427885
165	0xbd2c4bfc	-0.04206465
166	0x3d21abed	0.0394706
167	0x3e51a9cc	0.20474929
168	0xba2da442	-0.00066239026
169	0xbc7661f4	-0.015038002
170	0x3e3f953c	0.18709272
171	0x3f05ee4c	0.5231674
172	0x3dc4fb65	0.09618262
173	0xbe302083	-0.17199902
174	0x3ed48308	0.4150622
175	0x3eeed234	0.46644747
176	0x3e03c271	0.12867142
177	0x3f94e310	1.1631794
178	0xbf35a8aa	-0.70960486
179	0x3f2103c9	0.628964
180	0xbebec897	-0.37262413
181	0xbeb64d5a	-0.3560589
182	0xbd8753bb	-0.06607767
183	0xbe77ac62	-0.24186853
184	0xbf1537e7	-0.58288425
185	0xbf10a6ed	-0.5650471
186	0x3e2fc6ed	0.17165728
187	0x3f4b4d42	0.7941476
188	0x3d1b45bd	0.037908304
189	0xbc1991ac	-0.00937311
190	0x3d91f574	0.071268946
191	0x3ba4854d	0.0050207735
192	0x3eaa1f62	0.33227068
193	0xbf09dc87	-0.53852123
194	0xbef936da	-0.4867466
195	0xbc2c6f1a	-0.010524536
196	0xbcb939b4	-0.022610523
197	0xbf0ba260	-0.5454464
198	0x3d7de11d	0.061982263
199	0x3e90738d	0.28213158
200	0x3d8579e3	0.06517389
201	0xbeba693b	-0.3640841
202	0x3e6ca867	0.23111115
203	0xbed69700	-0.4191208
204	0xbec9ca76	-0.39412278
205	0x3eb5d92f	0.3551726
206	0x3f38533d	0.7200201
207	0xbe5e9aef	-0.2173879
208	0x3f978512	1.1837485
209	0xbea36c3a	-0.31918508
210	0x3d69a385	0.05704071
211	0x3ed12c95	0.40854326
212	0xbe6904b4	-0.227557
213	0x3daaaa13	0.0833322
214	0xbe9e9a89	-0.30977276
215	0xbeac7ec9	-0.3369048
216	0xbe0aace8	-0.13542521
217	0xbf135f0f	-0.5756692
218	0x3d642acd	0.05570488
219	0x3eef2df6	0.46714753
220	0xbb105b13	-0.002202694
221	0x3e2a7211	0.16645075
222	0x3e991ec9	0.299063
223	0xbebb3639	-0.36564806
224	0x3f20aaf6	0.62760866
225	0x3f0c5818	0.5482192
226	0x3e33490f	0.17508338
227	0x3f91cf4a	1.1391385
228	0xbd93e3b0	-0.07221162
229	0xbe15cc1b	-0.14628641
230	0xbe0b57a3	-0.1360765
231	0x3f0b69ea	0.5445849
232	0xbdc6f1fa	-0.09714122
233	0x3ea5c5f7	0.32377598
234	0xbec07264	-0.37587273
235	0x3c5cf8bd	0.013487038
236	0xbf2d1cb4	-0.6762192
237	0xbf202b87	-0.6256642
238	0xbee5fca1	-0.44919303
239	0xbf43ebe0	-0.7653179
240	0x3afdfe3e	0.0019378138
241	0xbe823a75	-0.25435224
242	0x3eb4b910	0.3529744
243	0x3e9f607a	0.31128293
244	0x3ef79311	0.4835439
245	0xbef9bdaa	-0.48777515
246	0xbe35f511	-0.17769267
247	0x3f3942fe	0.72367847
248	0xbe6287d7	-0.22122131
249	0x3f144cc0	0.5792961
250	0xbe23cdcb	-0.15996473
251	0xbe3969a3	-0.18106703
252	0x3ee6cfbc	0.45080364
253	0x3ecadf33	0.39623412
254	0xbe3ee8a3	-0.18643431
255	0xbed1db62	-0.40987688

linear_2.bias f4 [10]
0	0x3c72fb24	0.014830384
1	0xbe8de6b4	-0.27715075
2	0x3e0ab644	0.13546091
3	0x3e666236	0.22498402
4	0xbc6cce58	-0.014453493
5	0xbde7117c	-0.11282632
6	0xbd9489de	-0.072528586
7	0x3debf0d2	0.11520542
8	0x3dfd0b48	0.12355667
9	0xbe37483c	-0.17898649
