Machine_Learning/Deep_Learning/MLP_result.pth (torch, 11432 bytes, 4 tensors)

linear_1.weight f4 [30, 64]
0.029386528 -0.1772522 0.16684541 0.334957 0.3079048 0.102239296 -0.034846824 0.030070389
-0.06972221 0.16259651 0.2715242 -0.022805426 0.17217359 0.09060504 0.09930232 -0.0059181326
-0.022976074 -0.07586137 -0.2245065 -0.36454314 0.2534922 0.28853476 -0.08370404 -0.046480123
-0.06600189 -0.18425207 -0.38234687 0.16800739 0.4645234 0.016927486 -0.17163262 -0.13323294
-0.18682463 -0.42515135 -0.29344618 0.16173236 -0.022381805 -0.03961316 -0.3049949 -0.19601367
-0.0744996 -0.22351363 -0.48585162 -0.27685735 -0.084435046 -0.16889788 -0.1852676 -0.010641174
0.02105636 0.024285942 -0.12662606 -0.13439058 -0.14814527 0.024611525 0.009222721 -0.15832433
0.015597324 -0.17126878 0.21212454 0.09811215 0.07134511 0.16306081 -0.029154401 -0.16069347
0.01987527 -0.03184999 0.0695821 0.09837062 0.2632994 -0.06696959 -0.06412046 -0.17970234
0.054806422 0.017692918 0.21196601 -0.00036453892 -0.21074037 -0.22007371 0.09999686 -0.17259097
-0.15575717 -0.009681191 0.053826634 -0.100900754 -0.106798895 -0.07067209 -0.059482023 -0.18887606
-0.039434407 0.0164613 0.1418334 0.16319683 0.30173993 0.02529672 -0.011952106 -0.15709513
0.03245114 0.070757605 -0.002615362 -0.06017063 0.08086006 0.23740931 0.12397484 -0.18499474
0.055387698 0.075157486 -0.43281108 -0.28628665 -0.049541872 0.35916528 0.03567362 -0.009304275
-0.022436023 0.12553827 -0.12374569 -0.3829722 -0.12017041 -0.35298046 -0.2117255 -0.10071649
-0.13102455 -0.012739128 0.1269939 0.16585259 0.040872175 -0.4200822 -0.21379669 -0.28991532
0.011717083 -0.018656876 -0.17798303 -0.14949723 -0.039144993 -0.28931522 -0.19492693 -0.12378756
-0.1272907 -0.12339901 -0.14067726 -0.12910463 -0.1935809 -0.10773699 -0.15761356 -0.1513792
-0.10408645 -0.010983038 0.32879022 0.10592688 -0.2867526 0.28506586 -0.012581315 -0.1273346
-0.1325124 -0.03143472 0.35121745 0.014593227 -0.12342213 0.05950322 -0.03879109 -0.13441382
-0.13153417 -0.036942024 0.17817526 0.047318652 -0.060722716 -0.038663164 0.040432576 0.0069072144
0.023273153 0.11103497 0.4531834 0.06654999 0.011230013 0.26257 0.010536375 -0.10864149
0.041839298 -0.15490195 0.095428124 -0.050073758 -0.23700583 0.112811476 -0.03214314 -0.030628182
-0.089378625 -0.1371945 -0.33017635 -0.059586365 0.15465689 -0.041835606 -0.21091995 -0.09544748
0.08987185 -0.071916156 -0.07327534 -0.107916646 -0.05329222 -0.037963845 -0.06196696 0.10050396
0.051178135 0.08656197 0.0947532 0.079649396 -0.10830497 -0.05759131 0.11353765 -0.025488213
-0.020420192 0.015746554 -0.11619769 -0.08849183 0.019264936 0.077171616 0.13043651 0.055209395
0.12785502 0.09046254 0.08547359 -0.010727592 -0.10148041 -0.06459787 -0.001751015 0.07807238
-0.042259227 0.042069223 -0.06909306 -0.098417774 0.06496965 -0.10468041 -0.107117385 -0.066253245
-0.102768615 -0.05817237 -0.022215815 -0.0042364597 0.057673447 -0.078982756 0.09900051 -0.10840993
-0.0008708003 0.12178219 0.09296049 0.078603126 0.041792616 0.038069736 0.08796508 0.045845445
-0.045585226 0.027935022 -0.016092507 -0.012223261 -0.095092565 0.031399522 -0.08305391 0.020836385
00000000: 04bc f03c 9a81 35be 86d9 2a3e 7c7f ab3e
00000010: b3a5 9d3e d662 d13d 8bbb 0ebd 2d56 f63c
00000020: 85ca 8ebd b37f 263e 3805 8b3e 72d2 babc
00000030: 464e 303e 238f b93d 045f cb3d e5ec c1bb
00000040: 5238 bcbc 355d 9bbd 08e5 65be 66a5 babe
00000050: bbc9 813e d4ba 933e 066d abbd f161 3ebd
00000060: 002c 87bd 93ac 3cbe f8c2 c3be 210a 2c3e
00000070: 03d6 ed3e 83ab 8a3c 76c0 2fbe 376e 08be
00000080: f54e 3fbe 70ad d9be 943e 96be 2b9d 253e
00000090: 0c5a b7bc 6941 22bd 4b28 9cbe cfb7 48be
000000a0: 3f93 98bd c2e0 64be 8bc1 f8be 3fc0 8dbe
000000b0: 48ec acbd 91f3 2cbe cab6 3dbe 5258 2ebc
000000c0: 637e ac3c 50f3 c63c 43aa 01be af9d 09be
000000d0: 65b3 17be 1c9e c93c e51a 173c c61f 22be
000000e0: eb8b 7f3c 1561 2fbe 2d37 593e 06ef c83d
000000f0: 631d 923d 6af9 263e 36d5 eebc d48c 24be
00000100: 76d1 a23c 2375 02bd 0f81 8e3d 8976 c93d
00000110: 2ecf 863e 5a27 89bd 9651 83bd e403 38be
00000120: b37c 603d bdf0 903c 9e0d 593e 961f bfb9
00000130: 53cc 57be 015b 61be 27cb cc3d b0bb 30be
00000140: cf7e 1fbe dc9d 1ebc 5179 5c3d 0ea5 cebd
00000150: 61b9 dabd 87bc 90bd 6ca3 73bd ba68 41be
00000160: f985 21bd d9d9 863c c63c 113e 121d 273e
00000170: a87d 9a3e 113b cf3c c4d2 43bc 8cdd 20be
00000180: 7deb 043d 5de9 903d 7e66 2bbb 7b75 76bd
00000190: f699 a53d 6d1b 733e 85e6 fd3d 436f 3dbe
000001a0: 36de 623d 2bec 993d 6a99 ddbe 2a94 92be
000001b0: 6bec 4abd 83e4 b73e 801e 123d f570 18bc
000001c0: c0cb b7bc 1b8d 003e 616e fdbd ef14 c4be
000001d0: e71b f6bd dbb9 b4be 92ce 58be 7244 cebd
000001e0: 4d2b 06be c7b7 50bc b00a 023e 43d5 293e
000001f0: 9569 273d 0415 d7be 85ed 5abe c86f 94be
00000200: 02f9 3f3c 4ed6 98bc 2f41 36be cd15 19be
00000210: 8056 20bd 2021 94be ed9a 47be 5584 fdbd
00000220: 7e58 02be 9fb8 fcbd b30d 10be 0134 04be
00000230: 123a 46be 36a5 dcbd 7365 21be 2603 1bbe
00000240: 472b d5bd 33f2 33bc 3157 a83e 31f0 d83d
00000250: 3dd1 92be 27f4 913e dc21 4ebc 0064 02be
00000260: 55b1 07be b1c1 00bd c6d2 b33e 6e18 6f3c
00000270: bec4 fcbd a6b9 733d 68e3 1ebd c7a3 09be
00000280: e5b0 06be 8550 17bd 9373 363e 34d1 413d
00000290: 62b8 78bd 445d 1ebd a19c 253d ea55 e23b
000002a0: 57a7 be3c 4d66 e33d a807 e83e 5c4b 883d
000002b0: 17fe 373c 936f 863e c3a0 2c3c 6e7f debd
000002c0: af5f 2b3d 9e9e 1ebe d26f c33d 241a 4dbd
000002d0: a8b1 72be b409 e73d 86a8 03bd f4e7 fabc
000002e0: 240c b7bd b77c 0cbe e00c a9be d510 74bd
000002f0: 605e 1e3e d05b 2bbd 66fb 57be f879 c3bd
00000300: bc0e b83d c748 93bd 6211 96bd 6703 ddbd
00000310: f148 5abd fa7f 1bbd 11d1 7dbd 05d5 cd3d
00000320: 2aa0 513d 6747 b13d f70d c23d 391f a33d
00000330: ffce ddbd dee4 6bbd 6d86 e83d a8cc d0bc
00000340: 3f48 a7bc ebfe 803c 0ef9 edbd 343b b5bd
00000350: 80d1 9d3c 270c 9e3d 2691 053e 3f23 623d
00000360: 6dec 023e 6d44 b93d c70c af3d c8c2 2fbc
00000370: f6d4 cfbd e34b 84bd 5082 e5ba 69e4 9f3d
00000380: 0318 2dbd c750 2c3d aa80 8dbd 428f c9bd
00000390: cf0e 853d af62 d6bd 5c60 dbbd c8af 87bd
000003a0: 5a78 d2bd 2746 6ebd f1fd b5bc 00d2 8abb
000003b0: fe3a 6c3d b6c1 a1bd c8c0 ca3d 0606 debd
000003c0: 6b46 64ba f168 f93d 1262 be3d adfa a03d
000003d0: bc2e 2b3d 03ef 1b3d 0927 b43d 6fc8 3b3d
000003e0: 93b7 3abd fdd7 e43c 6fd4 83bc 1344 48bc
000003f0: e4bf c2bd c99c 003d 2b18 aabd 11b1 aa3c

linear_1.bias f4 [30]
0.11693556 0.095164955 0.0017849777 -0.10034257 -0.05871986 0.15865485 0.085107274 0.0031405187
-0.0002236387 -0.097265564 0.10355372 0.07555471 0.13562836 0.025369965 -0.093941666 0.102329105
0.0039723385 -0.040635247 -0.0021362386 0.049850933 0.03516502 0.12611595 -0.09382962 0.1655001
-0.08581326 0.036312282 0.08506226 -0.114254855 0.030977912 0.20170744
00000000: e97b ef3d d8e5 c23d eaf5 e93a 6880 cdbd
00000010: 3c84 70bd 6b76 223e b94c ae3d 29d1 4d3b
00000020: 8e80 6ab9 2b33 c7bd f913 d43d 6ebc 9a3d
00000030: 29e2 0a3e acd4 cf3c 7d64 c0bd ec91 d13d
00000040: 642a 823b 2571 26bd 2300 0cbb 7e30 4c3d
00000050: 3209 103d 8a24 013e be29 c0bd dc78 293e
00000060: ddbe afbd 30bc 143d 1f35 ae3d 73fe e9bd
00000070: 64c5 fd3c 658c 4e3e

linear_2.weight f4 [10, 30]
-0.5333702 -0.08259335 0.44755355 -0.026720166 -0.17815705 -0.3926502 -0.10741034 -0.31891134
-0.0721145 -0.37349445 -0.18406637 -0.17747723 0.42172796 0.41768163 0.029752253 0.17059873
0.16550596 -0.23325515 -0.059793606 -0.51278085 0.2100244 0.365821 0.4500893 0.22493729
-0.058286373 0.7029474 -0.25147954 -0.05706059 -0.26081744 -0.07489606 -0.051985834 -0.485256
-0.25615215 0.039971285 -0.1690191 0.50166184 0.050948758 0.12380363 0.16785616 0.38195184
0.15746182 0.4479249 -0.17241707 -0.48063293 0.32382914 -0.57951283 0.3827738 -0.116012305
0.05293308 0.42357036 0.009476053 -0.20712003 -0.04128737 -0.3015228 -0.234596 -0.2762905
-0.40539905 0.027859364 0.54374826 0.5923619 0.33003503 -0.6182717 -0.3494719 0.010130053
0.12735158 0.18768111 -0.04230264 -0.5020715 -0.08705137 -0.40203282 0.37808502 0.19170953
-0.044958252 -0.56627345 -0.006651563 0.66780204 -0.34858564 -0.26354232 -0.24618298 0.4300191
-0.40173757 -0.10010757 0.010358329 -0.16255605 0.6764841 0.44509152 0.17043427 -0.032522004
-0.2924472 0.35566673 0.6676582 0.35547462 -0.4899349 -0.029414976 -0.09417849 -0.32978845
0.60095376 -0.3071203 0.18765336 0.4939055 0.5341259 0.378039 -0.31657225 -0.36416143
-0.19748242 0.3210734 -0.30417252 -0.029276114 -0.18611035 -0.27399758 0.47559655 -0.257424
-0.18617359 -0.06759082 0.1269021 -0.31624323 0.06438781 -0.10898974 -0.028283697 -0.37475032
-0.6097151 0.3131459 0.40736926 0.17182909 0.11290692 0.47479367 -0.1026852 0.32363957
-0.023379715 -0.3048392 -0.40800396 -0.2966105 -0.13350897 0.4236057 -0.25302276 -0.06243482
0.48257488 0.08168577 0.14151108 -0.19204016 -0.36756805 -0.5321882 -0.049103223 0.027439058
-0.23406567 -0.43992385 0.23634389 -0.08216983 0.577237 0.30999517 0.01426156 0.58119136
-0.27424124 0.103487626 0.090662345 -0.19560614 0.21932311 0.31969592 0.11905234 -0.3101244
-0.32695827 0.64084184 -0.26341677 0.71074766 -0.06535691 -0.37851036 -0.40343544 -0.15773107
-0.010188437 0.07566886 -0.0062392144 0.47482893 -0.16263105 0.47414744 0.378848 0.047361746
-0.48846906 -0.10060114 -0.253396 -0.3709071 -0.6463638 -0.3861226 0.48591158 -0.116783865
0.18823141 0.59982973 -0.28067484 0.2820412 -0.008830627 -0.13495637 0.49900597 -0.04409478
-0.15216184 0.0462585 -0.11554449 -0.19185859 0.58654016 0.10024834 -0.182278 0.2962626
0.20646667 0.18677554 -0.10908161 -0.08219848 -0.11908096 -0.39278725 -0.16406709 0.087180346
-0.5765587 -0.5819752 0.11254697 0.1054723 -0.33209524 0.116453506 0.30796465 -0.31525126
-0.1597184 0.5865551 -0.06927098 0.16099359 -0.76768714 -0.023660174 0.047836132 -0.123208456
0.16753067 0.59288305 -0.116320476 0.19649501 0.36757606 0.08852614 0.031969156 -0.561702
0.013025756 0.27888542 -0.08546169 0.012984665 0.30804235 0.16592774 0.66177315 -0.27915648
0.21355683 -0.060870327 0.33746362 0.15103602 -0.19206741 0.009576956 0.089146554 0.048002683
-0.36565614 0.16135262 0.658584 -0.60086954 -0.40894324 0.102203585 0.039950028 -0.3223271
00000000: f38a 08bf b426 a9bd bd25 e53e 40e4 dabc
00000010: cd6e 36be 7209 c9be f4f9 dbbd 5948 a3be
00000020: c4b0 93bd aa3a bfbe e57b 3cbe 97bc 35be
00000030: baec d73e 5eda d53e ffba f33c 6fb1 2e3e
00000040: 657a 293e 70da 6ebe 24ea 74bd 9b45 03bf
00000050: a310 573e e44c bb3e 1b72 e63e f655 663e
00000060: b1bd 6ebd 5cf4 333f edc1 80be 5db8 69bd
00000070: dd89 85be 1b63 99bd 19ef 54bd 7973 f8be
00000080: 6026 83be eeb8 233d 5813 2dbe e96c 003f
00000090: a5af 503d c28c fd3d 7ce2 2b3e 318f c33e
000000a0: ac3d 213e 6a56 e53e 1a8e 30be 8515 f6be
000000b0: efcc a53e f45a 14bf edfa c33e dc97 edbd
000000c0: 5bd0 583d 37de d83e 7241 1b3c 4617 54be
000000d0: f21c 29bd 3261 9abe ef39 70be f375 8dbe
000000e0: 7790 cfbe 5239 e43c 1633 0b3f 08a5 173f
000000f0: 5afa a83e 0e47 1ebf fbed b2be 86f8 253c
00000100: 7468 023e 7a2f 403e 8845 2dbd c287 00bf
00000110: fd47 b2bd 3fd7 cdbe 5c94 c13e 814f 443e
00000120: 2526 38bd 4cf7 10bf 5bf5 d9bb 13f5 2a3f
00000130: d179 b2be 05ef 86be 6417 7cbe 772b dc3e
00000140: 8cb0 cdbe 3305 cdbd fbb5 293c 1875 26be
00000150: 102e 2d3f 09e3 e33e 5286 2e3e cb35 05bd
00000160: a4bb 95be f319 b63e a6eb 2a3f c500 b63e
00000170: bfd8 fabe adf7 f0bc a7e0 c0bd 08da a8be
00000180: 1bd8 193f df3e 9dbe 3428 403e 2fe1 fc3e
00000190: 7abc 083f 548e c13e c215 a2be 5e73 babe
000001a0: d538 4abe bc63 a43e 80bc 9bbe 76d4 efbc
000001b0: b693 3ebe 6949 8cbe 6481 f33e 14cd 83be
000001c0: 4aa4 3ebe 0e6d 8abd a0f2 013e a2ea a1be
000001d0: c2dd 833d 0336 dfbd 36b3 e7bc 46df bfbe
000001e0: 4a16 1cbf a954 a03e b492 d03e f7f3 2f3e
000001f0: be3b e73d 2818 f33e 9e4c d2bd 16b4 a53e
00000200: d186 bfbc e213 9cbe e5e5 d0be 55dd 97be
00000210: 93b6 08be d9e2 d83e 338c 81be a7bb 7fbd
00000220: 0e14 f73e de4a a73d 48e8 103e 2da6 44be
00000230: e131 bcbe 7c3d 08bf 7620 49bd e0c7 e03c
00000240: e9ae 6fbe b33d e1be 2204 723e a848 a8bd
00000250: cec5 133f b0b7 9e3e 51a9 693c f5c8 143f
00000260: 5969 8cbe 52f1 d33d 2ead b93d fa4c 48be
00000270: 3d96 603e 2faf a33e b7d1 f33d a0c8 9ebe
00000280: 1367 a7be 360e 243f 90de 86be 8ff3 353f
00000290: d8d9 85bd 1ccc c1be 178f cebe 4184 21be
000002a0: 67ed 26bc 46f8 9a3d 5372 ccbb c71c f33e
000002b0: c188 26be 74c3 f23e 5df8 c13e 64fe 413d
000002c0: 9e18 fabe f807 cebd 1fbd 81be 89e7 bdbe
000002d0: 1978 25bf ddb1 c5be 67c9 f83e 612c efbd
000002e0: bcbf 403e 718e 193f 9db4 8fbe b467 903e
000002f0: 56ae 10bc 0132 0abe b67d ff3e ba9c 34bd
00000300: 50d0 1bbe 8e79 3d3d 97a2 ecbd 9476 44be
00000310: 7f27 163f 004f cd3d 16a7 3abe bbaf 973e
00000320: 006c 533e 1642 3f3e 2e66 dfbd ad57 a8bd
00000330: b8e0 f3bd 691b c9be 3401 28be 9c8b b23d
00000340: 5a99 13bf 54fc 14bf 077f e63d dc01 d83d
00000350: 6308 aabe 2d7f ee3d 8bad 9d3e 9d68 a1be
00000360: 388d 23be 7a28 163f f2dd 8dbd 81db 243e
00000370: 2587 44bf fbd2 c1bc d2ef 433d b754 fcbd
00000380: 298d 2b3e 2fc7 173f 6e39 eebd fd35 493e
00000390: ee32 bc3e 314d b53d 17f2 023d b4cb 0fbf
000003a0: fb69 553c 12ca 8e3e 8a06 afbd a2bd 543c
000003b0: bab7 9d3e f6e8 293e f769 293f 99ed 8ebe
000003c0: a4ae 5a3e 2a53 79bd 08c8 ac3e 30a9 1a3e
000003d0: 52ad 44be aae8 1c3c 7892 b63d 769e 443d
000003e0: 4837 bbbe 9f39 253e f698 283f 96d2 19bf
000003f0: 0261 d1be 1d50 d13d a4a2 233d 0f08 a5be

linear_2.bias f4 [10]
0.24989544 0.16790241 -0.089121014 -0.12416399 0.045653064 -0.06616911 0.10509623 -0.16990612
0.15990894 0.10851019
00000000: 97e4 7f3e 9cee 2b3e 1485 b6bd b149 febd
00000010: b5fe 3a3d ac83 87bd b13c d73d dffb 2dbe
00000020: 2bbf 233e 973a de3d
