Machine_Learning/Deep_Learning/sample_model.pth (torch, 12152 bytes, 4 tensors)

weight f4 [30, 64]
0.009949579 0.03489992 0.02221365 0.21921805 0.05412792 -0.26487067 -0.08133753 -0.17203574
-0.11515281 0.21992062 0.20409201 -0.1016171 -0.03502463 0.042268768 0.025086466 -0.06980816
-0.09650361 0.07044288 0.18685852 -0.17190713 0.10789308 0.40512794 0.17607288 -0.15358093
-0.062156916 -0.04147258 0.041579343 0.025897704 -0.103445485 0.3359724 0.21218553 -0.009494086
-0.16123599 -0.09265624 -0.29604343 0.034835223 -0.2232483 -0.34040013 -0.22754058 -0.07383279
-0.10503355 0.060478795 -0.1343878 -0.06090155 -0.32098898 -0.3579909 -0.10031621 0.017300908
-0.013877164 0.003686699 0.17497744 0.21667054 -0.019944908 0.078917846 0.14069833 -0.17880975
-0.047238242 0.021344842 0.042106904 0.049173616 0.010049973 0.18070151 0.20090999 -0.07655269
-0.13952695 -0.07720469 -0.1397258 -0.08890364 0.45632756 -0.19356215 -0.081002094 -0.106747255
0.07095783 0.031021927 0.2328888 -0.011962164 -0.16199952 0.05868555 0.09660046 0.03230777
0.019957818 0.06983957 0.005892504 -0.41645163 -0.12700006 0.18977557 0.06756985 0.02532203
-0.049846765 -0.05503679 -0.22297792 0.15814109 -0.100716226 -0.23033485 -0.1298269 -0.044002973
-0.031658795 -0.22389497 -0.12997515 0.27243444 -0.030051326 -0.31650442 -0.2875084 -0.10423408
-0.04681601 0.03449648 -0.012782622 -0.23772655 -0.123811595 0.038722925 0.17337817 -0.05279198
0.024305686 -0.10768644 0.12266681 -0.13263424 -0.09598923 0.21150726 0.25527793 -0.15175456
0.04578499 -0.009287438 -0.089701906 0.044671584 0.0046808724 -0.02178217 -0.09588372 -0.1532863
-0.17915392 -0.10580264 -0.10746786 0.11792457 -0.1009221 0.20284715 0.20536803 0.053340442
-0.027719446 -0.20211941 -0.17933947 0.050148524 0.31407633 0.035050593 -0.0098062325 0.10537575
-0.013688345 -0.21749252 -0.18476357 0.023375582 0.0030143654 -0.14988787 0.101668335 -0.10818016
-0.1484265 -0.08037305 0.055896387 -0.3384263 -0.07182423 0.25641456 0.15133438 -0.09406663
-0.11440865 0.116970755 0.19492634 -0.016974233 0.08884872 0.4777208 0.29823688 -0.055298332
-0.01065407 -0.008400972 0.085366376 0.45501631 0.13794833 0.16588524 -0.11856746 0.011208163
0.0026119794 0.0293696 -0.04188167 0.17175044 -0.15856667 -0.5366787 -0.31780958 -0.1633118
-0.16761313 -0.11923467 -0.009514843 -0.103488944 -0.3769049 -0.4447195 -0.23773253 -0.16048749
-0.11068629 -0.06313406 0.11730007 0.13513945 -0.09361569 0.091165915 -0.0512459 -0.102097735
0.0867778 0.030971462 -0.024108525 -0.043245297 -0.13981928 -0.07840565 -0.12925413 -0.036129355
0.05751169 0.037654247 0.02090049 0.10698378 0.030815357 -0.07735544 -0.10923613 0.10080739
0.026985338 0.21436425 0.12310101 0.058301654 0.08658238 -0.005129241 0.03037275 0.07076018
0.07169497 0.09213084 -0.05207332 0.16790615 0.12599516 -0.16096926 -0.09388067 -0.11514424
-0.12995741 -0.08390592 -0.13111427 -0.030006856 0.103870645 -0.1310617 -0.052008726 -0.0050945836
0.028034136 0.013544824 -0.28402176 -0.11228567 0.10924223 0.0053441674 -0.17625728 0.1079498
-0.026743557 -0.000654043 0.029431159 0.1256762 -0.05073981 0.04701449 -0.044436224 -0.076214515
00000000: 8f03 233c 38f3 0e3d 67f9 b53c b27a 603e
00000010: 3db5 5d3d 219d 87be 4a94 a6bd 232a 30be
00000020: 3dd5 ebbd df32 613e 7ffd 503e a01c d0bd
00000030: fd75 0fbd 0422 2d3d 2282 cd3c 95f7 8ebd
00000040: afa3 c5bd 5b44 903d d757 3f3e 6c08 30be
00000050: 0cf7 dc3d ee6c cf3e 734c 343e 5244 1dbe
00000060: 4098 7ebd 27df 29bd 1a4f 2a3d 6c27 d43c
00000070: 3adb d3bd 9304 ac3e 2a47 593e 158d 1bbc
00000080: 0c1b 25be 8ec2 bdbd 0193 97be 61af 0e3d
00000090: 349b 64be ed48 aebe 6600 69be a535 97bd
000000a0: d41b d7bd 9db8 773d f59c 09be e773 79bd
000000b0: ab58 a4be 954a b7be 9672 cdbd a2ba 8d3c
000000c0: 0b5d 63bc 8c9c 713b 492d 333e e2de 5d3e
000000d0: 8163 a3bc ae9f a13d 3913 103e e719 37be
000000e0: e37c 41bd 61db ae3c 4a78 2c3d 466a 493d
000000f0: a4a8 243c d109 393e 59bb 4d3e a8c7 9cbd
00000100: 27e0 0ebe 7e1d 9ebd 4814 0fbe 1d13 b6bd
00000110: c4a3 e93e 2835 46be 6de4 a5bd 4e9e dabd
00000120: 5752 913d b221 fe3c 677a 6e3e f4fc 43bc
00000130: 34e3 25be 4260 703d 76d6 c53d 2755 043d
00000140: 947e a33c 0c08 8f3d e815 c13b 2639 d5be
00000150: 4e0c 02be 8754 423e 1062 8a3d 2570 cf3c
00000160: 1f2c 4cbd 426e 61bd 5354 64be bdef 213e
00000170: 4f44 cebd e6dc 6bbe 58f1 04be 763c 34bd
00000180: a7ac 01bd b944 65be 3518 05be 877c 8b3e
00000190: 332e f6bc de0c a2be 4d34 93be ad78 d5bd
000001a0: 25c2 3fbd 2e4c 0d3d 346e 51bc 976e 73be
000001b0: ef90 fdbd ee9b 1e3d 0c8a 313e 673c 58bd
000001c0: b81c c73c b58a dcbd bd38 fb3d 45d1 07be
000001d0: 0096 c4bd 5c95 583e cab3 823e 8c65 1bbe
000001e0: 0b89 3b3d 572a 18bc a2b5 b7bd 8df9 363d
000001f0: 0162 993b 8570 b2bc af5e c4bd 15f7 1cbe
00000200: 2074 37be 0eaf d8bd 1c18 dcbd 7082 f13d
00000210: 3fb0 cebd 2ab7 4f3e ff4b 523e 827b 5a3d
00000220: e413 e3bc 64f8 4ebe c4a4 37be 8a68 4d3d
00000230: 9dce a03e 3691 0f3d 52aa 20bc 3ecf d73d
00000240: 1545 60bc 5cb6 5ebe a932 3dbe 267e bf3c
00000250: a98c 453b 357c 19be 7d37 d03d 8f8d ddbd
00000260: 1efd 17be a09a a4bd 9cf3 643d 3646 adbe
00000270: 9518 93bd c548 833e 66f7 1a3e 01a6 c0bd
00000280: 154f eabd 5d8e ef3d c59a 473e 8c0d 8bbc
00000290: 51f6 b53d d297 f43e 81b2 983e 8180 62bd
000002a0: 698e 2ebc 3ba4 09bc 91d4 ae3d e6f7 e83e
000002b0: 5442 0d3e d2dd 293e 7fd3 f2bd 71a2 373c
000002c0: be2d 2b3b 8498 f03c 1d8c 2bbd 59df 2f3e
000002d0: 4d5f 22be c663 09bf f0b7 a2be 353b 27be
000002e0: c7a2 2bbe 4f31 f4bd 25e4 1bbc 03f2 d3bd
000002f0: aef9 c0be 46b2 e3be 2870 73be d556 24be
00000300: 7eaf e2bd 6e4c 81bd 053b f03d ff61 0a3e
00000310: 95b9 bfbd 32b5 ba3d 39e7 51bd 9e18 d1bd
00000320: 8fb8 b13d ddb7 fd3c 3e7f c5bc fb21 31bd
00000330: c92c 0fbe 2493 a0bd 325b 04be 60fc 13bd
00000340: 6191 6b3d 573b 1a3d 8137 ab3c 501a db3d
00000350: 7d70 fc3c 876c 9ebd 31b7 dfbd 1b74 ce3d
00000360: 5b10 dd3c 4d82 5b3e 621c fc3d b7cd 6e3d
00000370: 1a52 b13d 3113 a8bb 46d0 f83c b7ea 903d
00000380: d0d4 923d 18af bc3d d54a 55bd 97ef 2b3e
00000390: e004 013e 20d5 24be 8244 c0bd bed0 ebbd
000003a0: 8e13 05be ded6 abbd d242 06be f0d0 f5bc
000003b0: 22ba d43d 0a35 06be 1a07 55bd 77f0 a6bb
000003c0: d8a7 e53c 1ceb 5d3c 4d6b 91be 08f6 e5bd
000003d0: 64ba df3d 201e af3b ca7c 34be c914 dd3d
000003e0: 4e15 dbbc 1574 2bba 9d19 f13c 43b1 003e
000003f0: 8cd4 4fbd 4492 403d c202 36bd 5b16 9cbd

bias f4 [30]
0.16123632 0.06976258 -0.048288472 -0.066702805 0.08468837 0.02071169 0.09792702 0.15767188
0.06448099 0.09490224 0.1515996 -0.06311557 0.03559989 0.11332938 0.15392272 0.17274728
0.16521123 -0.02752575 -0.000780024 0.017326102 0.07613816 0.03720664 0.010358067 0.045609158
-0.049751487 -0.043403566 0.1394689 -0.06290514 -0.012662043 0.13668498
00000000: 221b 253e afdf 8e3d 22ca 45bd 7b9b 88bd
00000010: 1971 ad3d 90ab a93c f68d c83d bd74 213e
00000020: 9c0e 843d 1b5c c23d ed3c 1b3e bc42 81bd
00000030: 31d1 113d 3c19 e83d eb9d 1d3e aae4 303e
00000040: 222d 293e af7d e1bc 867a 4cba 78ef 8d3c
00000050: 53ee 9b3d fd65 183d e2b4 293c abd0 3a3d
00000060: 37c8 4bbd f0c7 31bd efd0 0e3e 69d4 80bd
00000070: 7574 4fbc 26f7 0b3e

weight f4 [10, 30]
0.1706427 0.09588433 -0.0044994713 -0.21751009 -0.5603317 0.3531054 0.27036348 -0.041272283
-0.70418495 0.16705781 -0.39370146 0.1365046 -0.5238836 -0.58763874 -0.15630816 -0.24404131
0.7647284 0.1332638 -0.0005684773 0.086739 0.19467348 0.29523548 0.12319317 -0.03323172
0.050548855 0.056511298 -0.5620826 0.024169846 0.49027273 1.2462869 -0.43104693 -0.64481354
0.21539925 0.1754963 0.1338842 -0.91420305 0.90304315 0.04734518 0.9824289 -0.055189993
-0.28743285 -0.09654242 0.77753454 0.5398573 -0.28645936 -0.8709003 -0.8019197 -0.123111926
-0.19085379 -0.052391343 0.6861667 -0.59847945 -0.05487257 0.11586109 0.15316248 0.08653434
0.033426248 0.031721707 -0.23181601 -0.26907897 0.6199381 0.034332037 -0.38317072 -0.04769154
1.144106 -0.0650661 -0.63029385 -0.4989145 0.49338135 0.115728915 -0.2529449 0.08379806
0.66187036 -0.49841917 0.42352647 -0.5837066 -0.7260007 -0.060792092 -0.12714383 -0.07905586
-0.3941917 0.2806841 -0.13889521 0.081753716 -0.36922675 0.025047872 -0.84966236 0.0730993
0.8016282 -0.13664456 -0.32760406 0.51039124 -0.38317198 0.20064235 1.0090342 0.023359159
-1.0941116 -0.26416773 -0.24913763 -0.07563062 0.09919321 0.15442824 -0.66839266 0.78226787
0.5359357 0.80208224 -0.030946929 0.011752394 -0.054913525 -0.101660304 0.5149486 0.039412443
0.17279196 0.07118107 -0.24935016 0.07677772 -0.5055801 0.08632597 -0.14916022 -0.6238295
0.019786995 -0.2607388 0.12517793 0.27964857 -0.82688224 -0.6980719 0.38389695 0.82798475
-0.336687 -0.15011065 0.18436629 -0.10611964 0.9057253 -0.07725084 -0.24691454 0.12779385
0.9322937 -0.07141221 0.08833833 -0.088458925 -0.77744454 -0.35900143 -0.017084923 -0.6952345
-0.009883938 0.049160957 0.48311993 -0.13110591 0.07125955 0.20376669 -0.31944057 -0.30375546
0.0073807496 0.2561059 -0.7444948 0.2978417 -0.7426398 -0.5260929 0.34905744 0.16513915
0.76617527 -0.14102855 -0.19376244 0.052153926 0.028798822 0.8471422 -0.4404495 -0.15299536
0.11769101 -0.05206457 0.5173916 -0.15078335 -0.07325735 -0.07192419 0.8185005 0.022326587
0.26918373 0.014589733 -0.31945273 0.9077032 -0.3273329 -0.0031267493 -0.16677125 -0.16723956
0.28940982 -0.15320703 0.27256536 -0.47733438 0.46131802 0.16189356 0.47346932 0.010881677
-0.022492329 -0.40551043 -0.425074 -0.34339002 1.1330651 -0.032882005 -0.21498634 -0.034154955
-0.46300542 -0.27859795 -0.1571096 0.8844933 0.06776055 -0.0020525048 -0.12938887 -0.01256008
-0.12471609 0.07025277 -0.14900164 -0.26870868 1.1391214 -0.33488145 -0.30499515 -0.32695377
-0.3739771 0.8173802 -0.4708596 0.055507008 -0.013109499 -0.063774966 -0.2864475 -0.20037726
-0.07608667 0.4541186 -0.36479193 -0.12198017 0.074469246 0.04286965 -0.28535235 1.029929
0.09578128 0.03911156 -0.40693817 -0.16218899 0.37734175 0.18906738 0.23360182 -0.38605767
-0.035929404 0.48278165 -0.39285424 -0.07276355 0.077667974 0.83546305 0.89751637 0.5422139
0.4907871 -0.13036245 -0.16796897 0.098448314 -0.31211588 0.29293704 0.2831275 -0.07305288
00000000: f6bc 2e3e 015f c43d 4d70 93bb f7ba 5ebe
00000010: e671 0fbf 3bca b43e 156d 8a3e 200d 29bd
00000020: 7745 34bf 3411 2b3e 3d93 c9be ddc7 0b3e
00000030: 3c1d 06bf 7e6f 16bf 3f0f 20be f7e5 79be
00000040: 3ec5 433f 4e76 083e de05 15ba 38a4 b13d
00000050: 7c58 473e 1b29 973e b34c fc3d fc1d 08bd
00000060: 510c 4f3d 6478 673d a5e4 0fbf d7ff c53c
00000070: 0705 fb3e 5486 9f3f 2fb2 dcbe 8012 25bf
00000080: 9f91 5c3e 4db5 333e f118 093e 3609 6abf
00000090: d62d 673f 05ed 413d 7680 7b3f e70e 62bd
000000a0: 662a 93be 08b8 c5bd 810c 473f 1734 0a3f
000000b0: cdaa 92be 52f3 5ebf 9c4a 4dbf 1b22 fcbd
000000c0: 2d6f 43be 4e98 56bd 9fa8 2f3f f335 19bf
000000d0: 0fc2 60bd 9448 ed3d a0d6 1c3e eb38 b13d
000000e0: f6e9 083d 9fee 013d 2d61 6dbe b8c4 89be
000000f0: 43b4 1e3f c09f 0c3d f42e c4be 3458 43bd
00000100: 1172 923f 6041 85bd f05a 21bf b971 ffbe
00000110: 7b9c fc3e 4803 ed3d fe81 81be 519e ab3d
00000120: 5670 293f cc30 ffbe 76d8 d83e cc6d 15bf
00000130: 2fdb 39bf 2101 79bd fe31 02be 0ae8 a1bd
00000140: 7fd3 c9be d4b5 8f3e 8c3a 0ebe 7e6e a73d
00000150: 4a0b bdbe 3231 cd3c 7983 59bf 16b5 953d
00000160: 8137 4d3f 8dec 0bbe b8bb a7be 00a9 023f
00000170: 1e2f c4be 3075 4d3e 0828 813f b55b bf3c
00000180: d90b 8cbf fe40 87be ef1d 7fbe 3ae4 9abd
00000190: cf25 cb3d 7022 1e3e c81b 2bbf b542 483f
000001a0: 1533 093f 4355 4d3f 6a84 fdbc 1d8d 403c
000001b0: 01ed 60bd 4733 d0bd acd3 033f f16e 213d
000001c0: 60f0 303e 61c7 913d a655 7fbe a33d 9d3d
000001d0: b36d 01bf accb b03d 75bd 18be 4ab3 1fbf
000001e0: 5618 a23c 8e7f 85be a52e 003e 192e 8f3e
000001f0: 8eae 53bf d7b4 32bf 248e c43e cff6 533f
00000200: 3d62 acbe 9bb6 19be 84ca 3c3e 4155 d9bd
00000210: 9ddd 673f b035 9ebd 2ad7 7cbe 64dc 023e
00000220: cdaa 6e3f 9140 92bd baea b43d f429 b5bd
00000230: 9b06 47bf 09cf b7be aef5 8bbc e3fa 31bf
00000240: 3ef0 21bc 005d 493d 7f5b f73e a140 06be
00000250: 87f0 913d 37a8 503e b78d a3be d685 9bbe
00000260: 37da f13b 5020 833e 3697 3ebf b57e 983e
00000270: a41d 3ebf 06ae 06bf a8b7 b23e 3d1a 293e
00000280: 1024 443f ca69 10be a969 46be 5b9f 553d
00000290: 82eb eb3c 50de 583f 9982 e1be d1aa 1cbe
000002a0: fc07 f13d a941 55bd c773 043f f366 1abe
000002b0: f307 96bd fd4c 93bd 4089 513f 3fe6 b63c
000002c0: 73d2 893e c709 6f3c 4f8f a3be 3d5f 683f
000002d0: 2e98 a7be 26ea 4cbb 15c6 2abe d940 2bbe
000002e0: 862d 943e 4ee2 1cbe b08d 8b3e 2c65 f4be
000002f0: e031 ec3e 6dc7 253e 926a f23e 1049 323c
00000300: d541 b8bc 109f cfbe 4da3 d9be d1d0 afbe
00000310: 4708 913f 48af 06bd 6125 5cbe 11e6 0bbd
00000320: 0c0f edbe 64a4 8ebe 57e1 20be 276e 623f
00000330: 0bc6 8a3d 5183 06bb 847e 04be cbc8 4dbc
00000340: 266b ffbd afe0 8f3d e393 18be 2f94 89be
00000350: bbce 913f 9575 abbe 5328 9cbe 7c66 a7be
00000360: ed79 bfbe d43f 513f 8214 f1be 515b 633d
00000370: 39c9 56bc 739c 82bd 3fa9 92be b22f 4dbe
00000380: 54d3 9bbd 3c82 e83e 02c6 babe bdd0 f9bd
00000390: 5583 983d 1698 2f3d b419 92be b7d4 833f
000003a0: fa28 c43d 7133 203d 335a d0be df14 26be
000003b0: f032 c13e e19a 413e 5135 6f3e 5aa9 c5be
000003c0: b62a 13bd 282f f73e 3124 c9be 0e05 95bd
000003d0: 6310 9f3d e8e0 553f a2c3 653f 88ce 0a3f
000003e0: 7248 fb3e bc7d 05be 0f00 2cbe 459f c93d
000003f0: a7cd 9fbe d8fb 953e 16f6 903e c09c 95bd

bias f4 [10]
0.21659014 0.023496436 0.25114423 -0.040575393 -0.030831402 0.040526494 -0.049195994 0.12241495
0.12091364 -0.24256587
00000000: cec9 5d3e 997b c03c fa95 803e 6232 26bd
00000010: 2392 fcbc 1cff 253d bd81 49bd b0b4 fa3d
00000020: 92a1 f73d 3063 78be
